media/Encodings/Overall/overall_model.npz (npz, 23112 bytes, 1 tensors)

encodings f8 [21, 128]
-0.1468876302242279 0.16620053350925446 0.030791494995355606 -0.050082944333553314 -0.04344073683023453 -0.04888438433408737 -0.011243816465139389 -0.07068349421024323
0.20256656408309937 -0.05228406935930252 0.17851637303829193 -0.02949666418135166 -0.15071910619735718 -0.13019931316375732 -0.01284625194966793 0.09130626916885376
-0.10073462128639221 -0.1488892138004303 -0.14505714178085327 -0.07452572882175446 -0.05058394372463226 -0.0014009590959176421 0.011860255151987076 0.0047288136556744576
-0.11632415652275085 -0.36414140462875366 -0.10588826984167099 -0.10581603646278381 0.056517161428928375 -0.08876588940620422 -0.045188333839178085 -0.027798907831311226
-0.24868327379226685 -0.14479228854179382 -0.001676345244050026 0.07057785242795944 0.038655608892440796 0.030458735302090645 0.16142268478870392 -0.003196767531335354
-0.1312609314918518 0.043894149363040924 0.12305215746164322 0.27577531337738037 0.15724918246269226 0.11766687780618668 -0.009039059281349182 -0.04571222513914108
0.05204867571592331 -0.17192721366882324 0.14118289947509766 0.10667692869901657 0.1765272319316864 0.055776484310626984 0.054310042411088943 -0.1280110478401184
0.00771387480199337 0.06361359357833862 -0.18829049170017242 0.07255012542009354 0.10248064994812012 -0.0018060822039842606 -0.17321962118148804 0.04635344818234444
0.3131066858768463 0.17981497943401337 -0.10863231867551804 -0.12688134610652924 0.16876764595508575 -0.1450117826461792 0.04206891730427742 0.018137812614440918
-0.05521707236766815 -0.10764680057764053 -0.23011726140975952 0.15238696336746216 0.3970588743686676 0.11621860414743423 -0.23559685051441193 -0.0067914919927716255
-0.16359470784664154 0.019295405596494675 0.06217418611049652 0.009669099934399128 -0.143927201628685 -0.025386039167642593 -0.09189420193433762 0.03620739281177521
0.16785170137882233 0.032461944967508316 -0.023123882710933685 0.1461951583623886 0.05438198149204254 0.009649058803915977 -0.005587201565504074 0.013747664168477058
-0.11080031096935272 -0.024493511766195297 -0.12300782650709152 -0.0026320433244109154 0.1500866711139679 -0.019504131749272346 -0.03426632657647133 0.11481393873691559
-0.17850638926029205 0.10487723350524902 0.04885569214820862 -0.07191094011068344 0.06124687194824219 0.08915334194898605 -0.04671356454491615 -0.14988094568252563
0.10853666812181473 -0.22955089807510376 0.2321237325668335 0.13727568089962006 -0.05252886563539505 0.14679357409477234 0.08439171314239502 0.1181296780705452
0.07839207351207733 0.038717035204172134 -0.09186764061450958 -0.10293018072843552 0.04836917296051979 -0.05580371245741844 0.07962965965270996 0.05142401531338692
-0.15959802269935608 0.14024578034877777 0.037945374846458435 -0.021364163607358932 -0.05441419780254364 -0.053542520850896835 -0.004458032548427582 -0.07115213572978973
0.21445520222187042 -0.041478149592876434 0.17824697494506836 -0.026810653507709503 -0.1508607119321823 -0.1403999924659729 -0.008832602761685848 0.11329355090856552
-0.09781144559383392 -0.14727751910686493 -0.12465037405490875 -0.1053401306271553 -0.058628521859645844 0.004215841181576252 0.005925146862864494 0.0205133818089962
-0.10202113538980484 -0.3652282953262329 -0.09690304100513458 -0.10953332483768463 0.03682602941989899 -0.1018800288438797 -0.022933391854166985 0.003989310469478369
-0.23515081405639648 -0.1583184003829956 0.008816421031951904 0.0683618038892746 0.03447936475276947 0.026434388011693954 0.15729866921901703 -0.011889023706316948
-0.10290335863828659 0.02120012603700161 0.1303328275680542 0.29081717133522034 0.14269594848155975 0.12745168805122375 -0.030746564269065857 -0.04670833423733711
0.03923012316226959 -0.18421109020709991 0.13167178630828857 0.10567151010036469 0.15068691968917847 0.05614602938294411 0.05705854296684265 -0.12922212481498718
0.022592995315790176 0.03264060243964195 -0.1980787068605423 0.06603527814149857 0.09346126765012741 -0.016024518758058548 -0.16822820901870728 0.03704066574573517
0.3161619007587433 0.16180802881717682 -0.0789094939827919 -0.11520364880561829 0.15492089092731476 -0.13939088582992554 0.032843343913555145 0.01176154613494873
-0.057556986808776855 -0.12634171545505524 -0.2305355668067932 0.15379682183265686 0.4096091091632843 0.1308954358100891 -0.23334258794784546 0.004328617826104164
-0.1548968106508255 0.007015659473836422 0.0642072781920433 -0.004843928851187229 -0.12692105770111084 -0.0457664430141449 -0.09197784960269928 0.0380004420876503
0.149005725979805 0.03511498123407364 -0.026610100641846657 0.15310226380825043 0.05673946440219879 -0.006693569011986256 0.0029122051782906055 -0.004315214231610298
-0.09758715331554413 -0.0020849332213401794 -0.13610734045505524 -0.03286675363779068 0.16242656111717224 -0.005004131235182285 -0.0033078286796808243 0.09591697156429291
-0.19221028685569763 0.10536472499370575 0.058803215622901917 -0.07985842227935791 0.06669680029153824 0.09072788804769516 -0.07765184342861176 -0.1421550214290619
0.12675027549266815 -0.22720582783222198 0.2350403517484665 0.13650180399417877 -0.031166648492217064 0.17282792925834656 0.06578074395656586 0.13114523887634277
0.06040541082620621 0.023091714829206467 -0.06886890530586243 -0.08367735147476196 0.057957105338573456 -0.048532962799072266 0.08026732504367828 0.06478018313646317
00000000: 0000 00c0 36cd c2bf 0000 0020 0f46 c53f
00000010: 0000 0040 ce87 9f3f 0000 00c0 78a4 a9bf
00000020: 0000 0040 dd3d a6bf 0000 00c0 5f07 a9bf
00000030: 0000 0080 ff06 87bf 0000 0040 5018 b2bf
00000040: 0000 0080 b3ed c93f 0000 0040 fac4 aabf
00000050: 0000 00e0 9fd9 c63f 0000 00a0 5f34 9ebf
00000060: 0000 0080 c34a c3bf 0000 0000 5faa c0bf
00000070: 0000 00c0 224f 8abf 0000 0000 d95f b73f
00000080: 0000 0080 bec9 b9bf 0000 0040 cd0e c3bf
00000090: 0000 0080 3b91 c2bf 0000 0040 1e14 b3bf
000000a0: 0000 0080 23e6 a9bf 0000 0060 0cf4 56bf
000000b0: 0000 0080 304a 883f 0000 0040 855e 733f
000000c0: 0000 0080 6bc7 bdbf 0000 00c0 174e d7bf
000000d0: 0000 0060 7e1b bbbf 0000 0080 c216 bbbf
000000e0: 0000 0040 d1ef ac3f 0000 0080 5cb9 b6bf
000000f0: 0000 00e0 ec22 a7bf 0000 0020 5177 9cbf
00000100: 0000 0080 dad4 cfbf 0000 00c0 8d88 c2bf
00000110: 0000 0000 1a77 5bbf 0000 00e0 6311 b23f
00000120: 0000 0000 abca a33f 0000 0020 9330 9f3f
00000130: 0000 00a0 7fa9 c43f 0000 0080 1b30 6abf
00000140: 0000 0080 28cd c0bf 0000 0040 4b79 a63f
00000150: 0000 00a0 5880 bf3f 0000 0080 4da6 d13f
00000160: 0000 00c0 bd20 c43f 0000 00a0 6a1f be3f
00000170: 0000 0000 1283 82bf 0000 00c0 9767 a7bf
00000180: 0000 00c0 1fa6 aa3f 0000 0000 b601 c6bf
00000190: 0000 0000 4812 c23f 0000 00e0 2d4f bb3f
000001a0: 0000 00c0 7198 c63f 0000 0040 bc8e ac3f
000001b0: 0000 00a0 86ce ab3f 0000 0080 aa62 c0bf
000001c0: 0000 0080 9598 7f3f 0000 0000 fb48 b03f
000001d0: 0000 0020 e719 c8bf 0000 0020 a592 b23f
000001e0: 0000 0000 2c3c ba3f 0000 0000 4297 5dbf
000001f0: 0000 0080 0f2c c6bf 0000 00a0 a3bb a73f
00000200: 0000 00a0 f009 d43f 0000 0060 2d04 c73f
00000210: 0000 00e0 53cf bbbf 0000 00e0 a53d c0bf
00000220: 0000 00a0 2d9a c53f 0000 0000 bf8f c2bf
00000230: 0000 00a0 0e8a a53f 0000 0000 b892 923f
00000240: 0000 0080 6945 acbf 0000 00a0 bd8e bbbf
00000250: 0000 0080 7b74 cdbf 0000 0080 6a81 c33f
00000260: 0000 00a0 6969 d93f 0000 00a0 80c0 bd3f
00000270: 0000 00a0 0928 cebf 0000 0040 65d1 7bbf
00000280: 0000 00e0 abf0 c4bf 0000 00c0 2cc2 933f
00000290: 0000 0080 4bd5 af3f 0000 00a0 64cd 833f
000002a0: 0000 00e0 346c c2bf 0000 0040 ccfe 99bf
000002b0: 0000 00e0 6086 b7bf 0000 0080 c689 a23f
000002c0: 0000 0020 2a7c c53f 0000 0020 da9e a03f
000002d0: 0000 0080 c9ad 97bf 0000 00e0 85b6 c23f
000002e0: 0000 0080 f4d7 ab3f 0000 00c0 e2c2 833f
000002f0: 0000 0000 9be2 76bf 0000 0040 bc27 8c3f
00000300: 0000 00c0 685d bcbf 0000 00c0 d314 99bf
00000310: 0000 00e0 707d bfbf 0000 0080 cb8f 65bf
00000320: 0000 0040 0a36 c33f 0000 0020 e4f8 93bf
00000330: 0000 0020 5b8b a1bf 0000 0040 7264 bd3f
00000340: 0000 0020 4cd9 c6bf 0000 0000 3cd9 ba3f
00000350: 0000 0000 9d03 a93f 0000 0060 c168 b2bf
00000360: 0000 0000 c05b af3f 0000 00e0 c0d2 b63f
00000370: 0000 0020 d7ea a7bf 0000 0080 4c2f c3bf
00000380: 0000 0020 0fc9 bb3f 0000 0080 ec61 cdbf
00000390: 0000 0000 3bb6 cd3f 0000 00e0 3f92 c13f
000003a0: 0000 0040 10e5 aabf 0000 00c0 21ca c23f
000003b0: 0000 0000 b29a b53f 0000 0020 bf3d be3f
000003c0: 0000 00c0 8011 b43f 0000 0020 b8d2 a33f
000003d0: 0000 0040 a384 b7bf 0000 00e0 a159 babf
000003e0: 0000 0020 d8c3 a83f 0000 00e0 4d92 acbf
000003f0: 0000 0000 9c62 b43f 0000 00a0 3f54 aa3f
00000400: 0000 0040 b56d c4bf 0000 00e0 92f3 c13f
00000410: 0000 0080 936d a33f 0000 00c0 7ce0 95bf
00000420: 0000 0080 2ddc abbf 0000 00e0 ec69 abbf
00000430: 0000 0000 9642 72bf 0000 00c0 0637 b2bf
00000440: 0000 00a0 4473 cb3f 0000 00c0 9f3c a5bf
00000450: 0000 0000 ccd0 c63f 0000 0080 4074 9bbf
00000460: 0000 0060 674f c3bf 0000 0080 a0f8 c1bf
00000470: 0000 00e0 d316 82bf 0000 0060 ce00 bd3f
00000480: 0000 00c0 2b0a b9bf 0000 0060 fdd9 c2bf
00000490: 0000 0040 16e9 bfbf 0000 0020 92f7 babf
000004a0: 0000 00c0 8e04 aebf 0000 0040 a144 713f
000004b0: 0000 0080 f744 783f 0000 00c0 7501 953f
000004c0: 0000 00a0 0e1e babf 0000 0080 e65f d7bf
000004d0: 0000 0040 a3ce b8bf 0000 0040 600a bcbf
000004e0: 0000 0080 dcda a23f 0000 0040 cf14 babf
000004f0: 0000 00e0 d97b 97bf 0000 0060 1857 703f
00000500: 0000 0000 6c19 cebf 0000 0000 c743 c4bf
00000510: 0000 0000 580e 823f 0000 00c0 2880 b13f
00000520: 0000 0080 47a7 a13f 0000 00c0 9d11 9b3f
00000530: 0000 00e0 5c22 c43f 0000 00c0 4559 88bf
00000540: 0000 00e0 df57 babf 0000 0060 7cb5 953f
00000550: 0000 0000 bfae c03f 0000 00a0 bf9c d23f
00000560: 0000 0060 dc43 c23f 0000 0040 5650 c03f
00000570: 0000 0000 077c 9fbf 0000 00a0 27ea a7bf
00000580: 0000 0080 f815 a43f 0000 00a0 3a94 c7bf
00000590: 0000 0000 9fda c03f 0000 00c0 490d bb3f
000005a0: 0000 0080 b549 c33f 0000 0020 2cbf ac3f
000005b0: 0000 0000 c736 ad3f 0000 00c0 598a c0bf
000005c0: 0000 0040 9e22 973f 0000 00e0 44b6 a03f
000005d0: 0000 00a0 a45a c9bf 0000 0020 b0e7 b03f
000005e0: 0000 00e0 13ed b73f 0000 0040 bb68 90bf
000005f0: 0000 0080 8088 c5bf 0000 0080 fef6 a23f
00000600: 0000 0020 ff3b d43f 0000 0020 20b6 c43f
00000610: 0000 00a0 6933 b4bf 0000 0080 fc7d bdbf
00000620: 0000 00a0 72d4 c33f 0000 0080 8fd7 c1bf
00000630: 0000 00c0 d7d0 a03f 0000 0000 7016 883f
00000640: 0000 0000 1c78 adbf 0000 0020 f72b c0bf
00000650: 0000 0080 3082 cdbf 0000 0040 9daf c33f
00000660: 0000 0020 0937 da3f 0000 0080 2ec1 c03f
00000670: 0000 0080 2bde cdbf 0000 0080 e2ba 713f
00000680: 0000 00a0 a8d3 c3bf 0000 00c0 73bc 7c3f
00000690: 0000 0060 e36f b03f 0000 0040 3ad7 73bf
000006a0: 0000 0000 f33e c0bf 0000 0000 b36e a7bf
000006b0: 0000 0040 dc8b b7bf 0000 0040 cb74 a33f
000006c0: 0000 00a0 9e12 c33f 0000 0040 97fa a13f
000006d0: 0000 00a0 ad3f 9bbf 0000 00e0 da98 c33f
000006e0: 0000 0080 f40c ad3f 0000 0040 b76a 7bbf
000006f0: 0000 0040 56db 673f 0000 0080 d4ac 71bf
00000700: 0000 00c0 78fb b8bf 0000 0000 6c14 61bf
00000710: 0000 0020 f76b c1bf 0000 0040 e9d3 a0bf
00000720: 0000 00c0 64ca c43f 0000 0040 367f 74bf
00000730: 0000 0000 0519 6bbf 0000 00c0 038e b83f
00000740: 0000 00c0 589a c8bf 0000 00c0 2ef9 ba3f
00000750: 0000 0080 741b ae3f 0000 0000 9a71 b4bf
00000760: 0000 00a0 0a13 b13f 0000 0060 f139 b73f
00000770: 0000 00c0 fde0 b3bf 0000 00c0 2232 c2bf
00000780: 0000 0060 5a39 c03f 0000 00a0 1415 cdbf
00000790: 0000 0060 cd15 ce3f 0000 0020 e478 c13f
000007a0: 0000 0060 26ea 9fbf 0000 00c0 391f c63f
000007b0: 0000 00c0 01d7 b03f 0000 0000 5ec9 c03f
000007c0: 0000 0040 75ed ae3f 0000 00c0 5aa5 973f
000007d0: 0000 0080 64a1 b1bf 0000 0000 e16b b5bf
000007e0: 0000 00c0 8dac ad3f 0000 0000 50d9 a8bf
000007f0: 0000 0040 668c b43f 0000 0020 6f95 b03f
