media/Encodings/Overall/overall_model.npz (npz, 41404 bytes, 1 tensors)

encodings f8 [38, 128]
0	0xbfc60afa00000000	-0.1722099781036377
1	0x3fc13f5ce0000000	0.13474617898464203
2	0xbf52c61100000000	-0.0011458555236458778
3	0xbfb5225480000000	-0.08255508542060852
4	0xbfc0ad6f40000000	-0.13029280304908752
5	0xbf9fc94d80000000	-0.031041346490383148
6	0x3f8c0c9ce0000000	0.013695931993424892
7	0xbfb176f160000000	-0.06822117418050766
8	0x3fc1d6f1a0000000	0.1393720656633377
9	0xbf6694f880000000	-0.0027565816417336464
10	0x3fcdb5e400000000	0.23211336135864258
11	0xbf96828380000000	-0.02198224514722824
12	0xbfd0d22180000000	-0.2628253698348999
13	0xbfbc244220000000	-0.10992825776338577
14	0xbfb04c1820000000	-0.0636611059308052
15	0x3fbb96b4c0000000	0.10776834189891815
16	0xbfb9e32680000000	-0.10112228989601135
17	0xbfbd734920000000	-0.1150403693318367
18	0xbfb6a95c20000000	-0.08852172642946243
19	0xbfb4c46880000000	-0.08112195134162903
20	0x3f6ddb3920000000	0.003644572803750634
21	0xbf939fcba0000000	-0.019164258614182472
22	0x3fb068f5c0000000	0.06410156190395355
23	0x3f98044180000000	0.023453734815120697
24	0xbfaef68d80000000	-0.06047479808330536
25	0xbfd867a500000000	-0.38132596015930176
26	0xbfb759a540000000	-0.09121163189411163
27	0xbf9e7b4780000000	-0.029767148196697235
28	0x3faa960240000000	0.05192572623491287
29	0xbfb346ac60000000	-0.07529713958501816
30	0x3f72607080000000	0.004486503079533577
31	0x3fa06c0d60000000	0.032074373215436935
32	0xbfcebbf040000000	-0.24011042714118958
33	0xbfb9c30d00000000	-0.10063248872756958
34	0x3f82f4f1c0000000	0.009256256744265556
35	0x3fb6205e80000000	0.08643141388893127
36	0xbfa1a34c40000000	-0.03444898873567581
37	0xbfa91e10e0000000	-0.04905750975012779
38	0x3fcd9acb40000000	0.2312864363193512
39	0xbf74027b40000000	-0.004885178990662098
40	0xbfb57dd380000000	-0.0839512050151825
41	0xbf912b1140000000	-0.01676585152745247
42	0x3fc0471540000000	0.12716928124427795
43	0x3fd1197140000000	0.26717787981033325
44	0x3fbe5c9fc0000000	0.11860083043575287
45	0x3fb9b16b20000000	0.10036344081163406
46	0x3f8b684ec0000000	0.013382544741034508
47	0xbfb1360000000000	-0.067230224609375
48	0x3fb89716e0000000	0.09605544060468674
49	0xbfcc3e9980000000	-0.22066038846969604
50	0x3fc1d2ea40000000	0.13924911618232727
51	0x3fc547d0a0000000	0.16625411808490753
52	0x3fc1b53fe0000000	0.13834379613399506
53	0x3fa437b840000000	0.03948760777711868
54	0x3faafa3d00000000	0.05269041657447815
55	0xbfbbee7740000000	-0.10910744965076447
56	0x3fb12cd260000000	0.06709017604589462
57	0x3fb3dbfbe0000000	0.0775754377245903
58	0xbfc7b6fb40000000	-0.18527165055274963
59	0x3f535f6600000000	0.0011824127286672592
60	0x3fb01acd60000000	0.06290896981954575
61	0xbfa82a0500000000	-0.04719558358192444
62	0xbfc38f07e0000000	-0.1528024524450302
63	0xbfb7753d40000000	-0.09163267910480499
64	0x3fd1a42060000000	0.2756424844264984
65	0x3fc004af20000000	0.12514294683933258
66	0xbfba5f85c0000000	-0.10302005708217621
67	0xbfb0388c80000000	-0.06336286664009094
68	0x3fc35bb960000000	0.15123669803142548
69	0xbfbb54b5a0000000	-0.10676131397485733
70	0x3f77c644e0000000	0.005804318469017744
71	0xbf3e08d800000000	-0.00045829080045223236
72	0xbfb3936e20000000	-0.07646835595369339
73	0xbfc09e6140000000	-0.1298333704471588
74	0xbfcf708340000000	-0.24562111496925354
75	0x3fc3437c40000000	0.15049698948860168
76	0x3fd6dead60000000	0.35734114050865173
77	0x3fc319d520000000	0.1492258459329605
78	0xbfc6541980000000	-0.17444151639938354
79	0x3fa21433c0000000	0.03531038016080856
80	0xbfb60d5180000000	-0.0861407220363617
81	0xbf91658440000000	-0.01698881760239601
82	0x3fa09f3d60000000	0.032464902848005295
83	0x3f986cbca0000000	0.02385229803621769
84	0xbfc5a76400000000	-0.16917085647583008
85	0xbf972c4e60000000	-0.022629952058196068
86	0xbfc140d820000000	-0.13479138910770416
87	0x3fa608c900000000	0.04303577542304993
88	0x3fc1555080000000	0.13541609048843384
89	0xbf949b7ae0000000	-0.02012435905635357
90	0xbf8c1ba140000000	-0.013724574819207191
91	0x3fc959e620000000	0.19805599749088287
92	0x3fb3cd2820000000	0.07734919339418411
93	0x3facae1c00000000	0.056015849113464355
94	0x3fad1fede0000000	0.05688422545790672
95	0x3faf0c5e60000000	0.06064124032855034
96	0xbfbd934400000000	-0.11552834510803223
97	0xbfa0604260000000	-0.03198440000414848
98	0xbfbb374c00000000	-0.10631251335144043
99	0x3fa0247a80000000	0.03152830898761749
100	0x3fc40e2c60000000	0.15668253600597382
101	0xbfbd55f8c0000000	-0.11459307372570038
102	0xbf970099c0000000	-0.022463228553533554
103	0x3fab930800000000	0.05385613441467285
104	0xbfc85258c0000000	-0.19001302123069763
105	0x3fb6c73320000000	0.08897704631090164
106	0x3f7884e5c0000000	0.005986115895211697
107	0xbfae27a420000000	-0.05889618769288063
108	0x3fa10d7b00000000	0.033305972814559937
109	0xbfa8349020000000	-0.04727602377533913
110	0xbfb021c840000000	-0.06301547586917877
111	0xbfbac8a280000000	-0.104623943567276
112	0x3fb32f73a0000000	0.07494280487298965
113	0xbfcfa3bb60000000	-0.24718420207500458
114	0x3fcc2bb160000000	0.22008340060710907
115	0x3fbee906a0000000	0.12074319273233414
116	0xbface2ae40000000	-0.056416936218738556
117	0x3fc9906180000000	0.1997186541557312
118	0x3fbbd42a40000000	0.10870613157749176
119	0x3fc06991a0000000	0.12822170555591583
120	0x3f94c8e9c0000000	0.020297672599554062
121	0xbf946cd380000000	-0.01994638890028
122	0xbfad55f1e0000000	-0.057296331971883774
123	0xbfc04a11c0000000	-0.12726041674613953
124	0x3fb57315a0000000	0.08378729969263077
125	0xbf970c09e0000000	-0.02250686101615429
126	0x3fb1225e00000000	0.06693065166473389
127	0x3faacd91a0000000	0.05234961584210396
128	0xbfc3af5820000000	-0.15378858149051666
129	0x3fb883f500000000	0.09576350450515747
130	0x3f9ab2cf00000000	0.026072725653648376
131	0xbfb19faf20000000	-0.06884283572435379
132	0xbfb6751d40000000	-0.08772452175617218
133	0xbfa74aba80000000	-0.045492008328437805
134	0x3f882fae00000000	0.011809691786766052
135	0xbfb35390a0000000	-0.07549384981393814
136	0x3fc062e020000000	0.12801744043827057
137	0x3f77d96ae0000000	0.005822579842060804
138	0x3fcca83760000000	0.22388355433940887
139	0xbfae2dbe60000000	-0.05894274637103081
140	0xbfd1d84ac0000000	-0.27882641553878784
141	0xbfc1d7f240000000	-0.13940265774726868
142	0xbfa4e60300000000	-0.04081735014915466
143	0x3fbea28640000000	0.1196674257516861
144	0xbfbed0f660000000	-0.12037601321935654
145	0xbfc220efa0000000	-0.1416301280260086
146	0xbfb781d5a0000000	-0.09182486683130264
147	0xbfb917d500000000	-0.09801989793777466
148	0xbfa03f2940000000	-0.03173188120126724
149	0xbf90398080000000	-0.015844352543354034
150	0x3faef9db00000000	0.060499995946884155
151	0x3f8bbe7300000000	0.013546846807003021
152	0xbfb6627ae0000000	-0.08744018524885178
153	0xbfd8646480000000	-0.3811274766921997
154	0xbfb7c8cd60000000	-0.09290774911642075
155	0xbfb6ee9200000000	-0.08957779407501221
156	0x3f50dc2a00000000	0.0010290537029504776
157	0xbfb1b2f980000000	-0.06913718581199646
158	0x3f7e3fce00000000	0.007385067641735077
159	0x3f92c43ca0000000	0.018326709046959877
160	0xbfcfc3ebc0000000	-0.2481665313243866
161	0xbfbfb2f000000000	-0.1238241195678711
162	0x3f74d7ee00000000	0.005088739097118378
163	0x3fa918b4c0000000	0.049016617238521576
164	0x3f91ec99c0000000	0.017504122108221054
165	0xbfadd86400000000	-0.05829155445098877
166	0x3fcab8b1e0000000	0.20876143872737885
167	0xbf825755c0000000	-0.008955640718340874
168	0xbfb7b0b8c0000000	-0.09254030883312225
169	0xbf8b060560000000	-0.013195077888667583
170	0x3fc3187540000000	0.14918389916419983
171	0x3fccf74ca0000000	0.22629697620868683
172	0x3fb3fd7720000000	0.07808632403612137
173	0x3fb8ebe620000000	0.09734953194856644
174	0x3f91455d80000000	0.01686616986989975
175	0xbfb24f2580000000	-0.07152017951011658
176	0x3fa8f10f00000000	0.048714131116867065
177	0xbfcb18c480000000	-0.21169334650039673
178	0x3fc3733ec0000000	0.1519545018672943
179	0x3fc1f52060000000	0.1402931660413742
180	0x3fbf2a1b40000000	0.12173624336719513
181	0x3f94fe2200000000	0.02050068974494934
182	0x3fa85a50c0000000	0.047564052045345306
183	0xbfbf7920e0000000	-0.12294202297925949
184	0x3f9aac7c60000000	0.026048606261610985
185	0x3fb7ce4700000000	0.09299129247665405
186	0xbfca0d25a0000000	-0.20352621376514435
187	0x3fa6cc3e80000000	0.04452700912952423
188	0x3fb2a2f5e0000000	0.07279907912015915
189	0xbf98976420000000	-0.02401501126587391
190	0xbfc59ea400000000	-0.16890382766723633
191	0xbfb4300220000000	-0.07885754853487015
192	0x3fd22d9180000000	0.2840312719345093
193	0x3fc3450000000000	0.150543212890625
194	0xbfbdcf7e00000000	-0.1164473295211792
195	0xbfb3a3e160000000	-0.07671936601400375
196	0x3fc1e86340000000	0.13990440964698792
197	0xbfb7000e40000000	-0.08984459936618805
198	0xbf4b471900000000	-0.0008324501104652882
199	0x3f834ebf80000000	0.009427543729543686
200	0xbfb127f500000000	-0.06701594591140747
201	0xbfc07c35e0000000	-0.12879060208797455
202	0xbfd15c68c0000000	-0.2712652087211609
203	0x3fc41f43c0000000	0.15720412135124207
204	0x3fd6cae3e0000000	0.35613343119621277
205	0x3fbdbad760000000	0.1161322221159935
206	0xbfc86c0500000000	-0.19079649448394775
207	0x3f97284060000000	0.022614484652876854
208	0xbfc0c66f40000000	-0.13105574250221252
209	0xbf7f9bb400000000	-0.007716849446296692
210	0x3f91d94cc0000000	0.017430495470762253
211	0x3fa01fdb20000000	0.031493041664361954
212	0xbfc1807780000000	-0.13673299551010132
213	0x3f4f5af400000000	0.0009568873792886734
214	0xbfbe0abce0000000	-0.11735134571790695
215	0x3fa2622ac0000000	0.035905204713344574
216	0x3fba72f320000000	0.10331649333238602
217	0x3f8748fd20000000	0.011369683779776096
218	0xbf9a333ba0000000	-0.025586063042283058
219	0x3fc881a360000000	0.19145624339580536
220	0x3fa1697440000000	0.03400767594575882
221	0x3fa45ec900000000	0.03978565335273743
222	0x3fa5b4b9a0000000	0.042394448071718216
223	0x3fb20d41e0000000	0.07051479071378708
224	0xbfc01d14a0000000	-0.12588746845722198
225	0xbfa7b1f7a0000000	-0.0462796576321125
226	0xbfb9fdc800000000	-0.10152864456176758
227	0x3f48724c00000000	0.0007460471242666245
228	0x3fc64a5940000000	0.1741439402103424
229	0xbfafabf780000000	-0.061858877539634705
230	0xbf903ca680000000	-0.015856362879276276
231	0x3fafae0540000000	0.061874546110630035
232	0xbfc49f7ce0000000	-0.16111718118190765
233	0x3fa678a800000000	0.04388928413391113
234	0x3f5605d780000000	0.0013441662304103374
235	0xbfb75dcda0000000	-0.09127507358789444
236	0x3fa6f48740000000	0.044834353029727936
237	0xbf93a8a4c0000000	-0.019198011606931686
238	0xbf97e51580000000	-0.023334823548793793
239	0xbfbe5538e0000000	-0.1184878870844841
240	0x3fb43449e0000000	0.07892286032438278
241	0xbfd086fd80000000	-0.25823915004730225
242	0x3fc87b1d00000000	0.19125711917877197
243	0x3fbc2ba840000000	0.11004115641117096
244	0xbfacc7f680000000	-0.05621309578418732
245	0x3fc8c7f4c0000000	0.19360217452049255
246	0x3fb80f7e20000000	0.0939863994717598
247	0x3fc02f36c0000000	0.1264408528804779
248	0x3f74644880000000	0.0049784500151872635
249	0xbf9607c820000000	-0.021514059975743294
250	0xbfb6e29ce0000000	-0.08939533680677414
251	0xbfbbd56e20000000	-0.10872543603181839
252	0x3fb5c0e2a0000000	0.08497444540262222
253	0xbf5c26b700000000	-0.001718214713037014
254	0x3fb69d4f00000000	0.08833783864974976
255	0x3faf547540000000	0.06119123846292496
